{"class_name": "Model", "keras_version": "2.0.8", "config": {"layers": [{"class_name": "InputLayer", "config": {"dtype": "float32", "batch_input_shape": [null, 784], "name": "input_1", "sparse": false}, "inbound_nodes": [], "name": "input_1"}, {"class_name": "Reshape", "config": {"target_shape": [28, 28, 1], "trainable": true, "name": "reshape_1"}, "inbound_nodes": [[["input_1", 0, 0, {}]]], "name": "reshape_1"}, {"class_name": "Conv2D", "config": {"kernel_constraint": null, "kernel_initializer": {"class_name": "VarianceScaling", "config": {"distribution": "uniform", "scale": 1.0, "seed": null, "mode": "fan_avg"}}, "name": "Conv2DE_0", "bias_regularizer": null, "bias_constraint": null, "activation": "gated_linear", "trainable": true, "data_format": "channels_last", "padding": "same", "strides": [1, 1], "dilation_rate": [1, 1], "kernel_regularizer": null, "filters": 32, "bias_initializer": {"class_name": "Zeros", "config": {}}, "use_bias": true, "activity_regularizer": null, "kernel_size": [5, 5]}, "inbound_nodes": [[["reshape_1", 0, 0, {}]]], "name": "Conv2DE_0"}, {"class_name": "Conv2D", "config": {"kernel_constraint": null, "kernel_initializer": {"class_name": "VarianceScaling", "config": {"distribution": "uniform", "scale": 1.0, "seed": null, "mode": "fan_avg"}}, "name": "Conv2DE_1", "bias_regularizer": null, "bias_constraint": null, "activation": "gated_linear", "trainable": true, "data_format": "channels_last", "padding": "same", "strides": [2, 2], "dilation_rate": [1, 1], "kernel_regularizer": null, "filters": 32, "bias_initializer": {"class_name": "Zeros", "config": {}}, "use_bias": true, "activity_regularizer": null, "kernel_size": [5, 5]}, "inbound_nodes": [[["Conv2DE_0", 0, 0, {}]]], "name": "Conv2DE_1"}, {"class_name": "Conv2D", "config": {"kernel_constraint": null, "kernel_initializer": {"class_name": "VarianceScaling", "config": {"distribution": "uniform", "scale": 1.0, "seed": null, "mode": "fan_avg"}}, "name": "Conv2DE_2", "bias_regularizer": null, "bias_constraint": null, "activation": "gated_linear", "trainable": true, "data_format": "channels_last", "padding": "same", "strides": [1, 1], "dilation_rate": [1, 1], "kernel_regularizer": null, "filters": 64, "bias_initializer": {"class_name": "Zeros", "config": {}}, "use_bias": true, "activity_regularizer": null, "kernel_size": [5, 5]}, "inbound_nodes": [[["Conv2DE_1", 0, 0, {}]]], "name": "Conv2DE_2"}, {"class_name": "Conv2D", "config": {"kernel_constraint": null, "kernel_initializer": {"class_name": "VarianceScaling", "config": {"distribution": "uniform", "scale": 1.0, "seed": null, "mode": "fan_avg"}}, "name": "Conv2DE_3", "bias_regularizer": null, "bias_constraint": null, "activation": "gated_linear", "trainable": true, "data_format": "channels_last", "padding": "same", "strides": [2, 2], "dilation_rate": [1, 1], "kernel_regularizer": null, "filters": 64, "bias_initializer": {"class_name": "Zeros", "config": {}}, "use_bias": true, "activity_regularizer": null, "kernel_size": [5, 5]}, "inbound_nodes": [[["Conv2DE_2", 0, 0, {}]]], "name": "Conv2DE_3"}, {"class_name": "Conv2D", "config": {"kernel_constraint": null, "kernel_initializer": {"class_name": "VarianceScaling", "config": {"distribution": "uniform", "scale": 1.0, "seed": null, "mode": "fan_avg"}}, "name": "Conv2DE_4", "bias_regularizer": null, "bias_constraint": null, "activation": "gated_linear", "trainable": true, "data_format": "channels_last", "padding": "valid", "strides": [1, 1], "dilation_rate": [1, 1], "kernel_regularizer": null, "filters": 256, "bias_initializer": {"class_name": "Zeros", "config": {}}, "use_bias": true, "activity_regularizer": null, "kernel_size": [7, 7]}, "inbound_nodes": [[["Conv2DE_3", 0, 0, {}]]], "name": "Conv2DE_4"}, {"class_name": "Dense", "config": {"kernel_initializer": {"class_name": "VarianceScaling", "config": {"distribution": "uniform", "scale": 1.0, "seed": null, "mode": "fan_avg"}}, "name": "z_meanE_5", "kernel_constraint": null, "bias_regularizer": null, "bias_constraint": null, "activation": "linear", "trainable": true, "kernel_regularizer": null, "bias_initializer": {"class_name": "Zeros", "config": {}}, "units": 64, "use_bias": true, "activity_regularizer": null}, "inbound_nodes": [[["Conv2DE_4", 0, 0, {}]]], "name": "z_meanE_5"}, {"class_name": "Dense", "config": {"kernel_initializer": {"class_name": "VarianceScaling", "config": {"distribution": "uniform", "scale": 1.0, "seed": null, "mode": "fan_avg"}}, "name": "z_varE_5", "kernel_constraint": null, "bias_regularizer": null, "bias_constraint": null, "activation": "linear", "trainable": true, "kernel_regularizer": null, "bias_initializer": {"class_name": "Zeros", "config": {}}, "units": 64, "use_bias": true, "activity_regularizer": null}, "inbound_nodes": [[["Conv2DE_4", 0, 0, {}]]], "name": "z_varE_5"}, {"class_name": "Lambda", "config": {"function": ["c\u0002\u0000\u0000\u0000\u0005\u0000\u0000\u0000\u0007\u0000\u0000\u0000C\u0000\u0000\u0000sn\u0000\u0000\u0000|\u0000\u0000\\\u0002\u0000}\u0002\u0000}\u0003\u0000t\u0000\u0000|\u0002\u0000d\u0001\u0000\u0083\u0002\u0000s-\u0000t\u0001\u0000j\u0002\u0000|\u0002\u0000\u0083\u0001\u0000}\u0002\u0000n\u0000\u0000t\u0001\u0000j\u0003\u0000d\u0002\u0000|\u0002\u0000j\u0004\u0000d\u0003\u0000\u0019f\u0001\u0000d\u0004\u0000d\u0005\u0000d\u0006\u0000|\u0001\u0000\u0083\u0000\u0003}\u0004\u0000|\u0002\u0000t\u0001\u0000j\u0005\u0000|\u0003\u0000d\u0007\u0000\u0015\u0083\u0001\u0000|\u0004\u0000\u0014\u0017S(\b\u0000\u0000\u0000Nt\f\u0000\u0000\u0000_keras_shapet\u0005\u0000\u0000\u0000shapei\u00ff\u00ff\u00ff\u00fft\u0004\u0000\u0000\u0000meang\u0000\u0000\u0000\u0000\u0000\u0000\u0000\u0000t\u0006\u0000\u0000\u0000stddevi\u0002\u0000\u0000\u0000(\u0006\u0000\u0000\u0000t\u0007\u0000\u0000\u0000hasattrt\u0001\u0000\u0000\u0000Kt\b\u0000\u0000\u0000variablet\r\u0000\u0000\u0000random_normalR\u0000\u0000\u0000\u0000t\u0003\u0000\u0000\u0000exp(\u0005\u0000\u0000\u0000t\u0006\u0000\u0000\u0000inputst\u0003\u0000\u0000\u0000stdt\u0006\u0000\u0000\u0000z_meant\u0007\u0000\u0000\u0000z_noiset\u0007\u0000\u0000\u0000z_score(\u0000\u0000\u0000\u0000(\u0000\u0000\u0000\u0000s8\u0000\u0000\u0000/auto/rcf-proj/ef/palashgo/rob/ib_autoencoders/layers.pyt\n\u0000\u0000\u0000vae_sample\u0013\u0000\u0000\u0000s\u000e\u0000\u0000\u0000\u0000\u0002\f\u0001\u000f\u0001\u0012\u0001\u0019\u0001\u0006\u0001\t\u0001", [1.0], null], "name": "z_act_E_5", "trainable": true, "function_type": "lambda", "arguments": {}, "output_shape": null, "output_shape_type": "raw"}, "inbound_nodes": [[["z_meanE_5", 0, 0, {}], ["z_varE_5", 0, 0, {}]]], "name": "z_act_E_5"}, {"class_name": "Conv2DTranspose", "config": {"kernel_constraint": null, "kernel_initializer": {"class_name": "VarianceScaling", "config": {"distribution": "uniform", "scale": 1.0, "seed": null, "mode": "fan_avg"}}, "name": "Conv2DTransposeD_0", "bias_regularizer": null, "bias_constraint": null, "activation": "gated_linear", "trainable": true, "data_format": "channels_last", "padding": "valid", "strides": [1, 1], "kernel_regularizer": null, "filters": 64, "bias_initializer": {"class_name": "Zeros", "config": {}}, "use_bias": true, "activity_regularizer": null, "kernel_size": [7, 7]}, "inbound_nodes": [[["z_act_E_5", 0, 0, {}]]], "name": "Conv2DTransposeD_0"}, {"class_name": "Conv2DTranspose", "config": {"kernel_constraint": null, "kernel_initializer": {"class_name": "VarianceScaling", "config": {"distribution": "uniform", "scale": 1.0, "seed": null, "mode": "fan_avg"}}, "name": "Conv2DTransposeD_1", "bias_regularizer": null, "bias_constraint": null, "activation": "gated_linear", "trainable": true, "data_format": "channels_last", "padding": "same", "strides": [1, 1], "kernel_regularizer": null, "filters": 64, "bias_initializer": {"class_name": "Zeros", "config": {}}, "use_bias": true, "activity_regularizer": null, "kernel_size": [5, 5]}, "inbound_nodes": [[["Conv2DTransposeD_0", 0, 0, {}]]], "name": "Conv2DTransposeD_1"}, {"class_name": "Conv2DTranspose", "config": {"kernel_constraint": null, "kernel_initializer": {"class_name": "VarianceScaling", "config": {"distribution": "uniform", "scale": 1.0, "seed": null, "mode": "fan_avg"}}, "name": "Conv2DTransposeD_2", "bias_regularizer": null, "bias_constraint": null, "activation": "gated_linear", "trainable": true, "data_format": "channels_last", "padding": "same", "strides": [2, 2], "kernel_regularizer": null, "filters": 64, "bias_initializer": {"class_name": "Zeros", "config": {}}, "use_bias": true, "activity_regularizer": null, "kernel_size": [5, 5]}, "inbound_nodes": [[["Conv2DTransposeD_1", 0, 0, {}]]], "name": "Conv2DTransposeD_2"}, {"class_name": "Conv2DTranspose", "config": {"kernel_constraint": null, "kernel_initializer": {"class_name": "VarianceScaling", "config": {"distribution": "uniform", "scale": 1.0, "seed": null, "mode": "fan_avg"}}, "name": "Conv2DTransposeD_3", "bias_regularizer": null, "bias_constraint": null, "activation": "gated_linear", "trainable": true, "data_format": "channels_last", "padding": "same", "strides": [1, 1], "kernel_regularizer": null, "filters": 32, "bias_initializer": {"class_name": "Zeros", "config": {}}, "use_bias": true, "activity_regularizer": null, "kernel_size": [5, 5]}, "inbound_nodes": [[["Conv2DTransposeD_2", 0, 0, {}]]], "name": "Conv2DTransposeD_3"}, {"class_name": "Conv2DTranspose", "config": {"kernel_constraint": null, "kernel_initializer": {"class_name": "VarianceScaling", "config": {"distribution": "uniform", "scale": 1.0, "seed": null, "mode": "fan_avg"}}, "name": "Conv2DTransposeD_4", "bias_regularizer": null, "bias_constraint": null, "activation": "gated_linear", "trainable": true, "data_format": "channels_last", "padding": "same", "strides": [2, 2], "kernel_regularizer": null, "filters": 32, "bias_initializer": {"class_name": "Zeros", "config": {}}, "use_bias": true, "activity_regularizer": null, "kernel_size": [5, 5]}, "inbound_nodes": [[["Conv2DTransposeD_3", 0, 0, {}]]], "name": "Conv2DTransposeD_4"}, {"class_name": "Conv2DTranspose", "config": {"kernel_constraint": null, "kernel_initializer": {"class_name": "VarianceScaling", "config": {"distribution": "uniform", "scale": 1.0, "seed": null, "mode": "fan_avg"}}, "name": "Conv2DTransposeD_5", "bias_regularizer": null, "bias_constraint": null, "activation": "gated_linear", "trainable": true, "data_format": "channels_last", "padding": "same", "strides": [1, 1], "kernel_regularizer": null, "filters": 32, "bias_initializer": {"class_name": "Zeros", "config": {}}, "use_bias": true, "activity_regularizer": null, "kernel_size": [4, 4]}, "inbound_nodes": [[["Conv2DTransposeD_4", 0, 0, {}]]], "name": "Conv2DTransposeD_5"}, {"class_name": "Conv2D", "config": {"kernel_constraint": null, "kernel_initializer": {"class_name": "VarianceScaling", "config": {"distribution": "uniform", "scale": 1.0, "seed": null, "mode": "fan_avg"}}, "name": "Conv2DD_6", "bias_regularizer": null, "bias_constraint": null, "activation": "sigmoid", "trainable": true, "data_format": "channels_last", "padding": "same", "strides": [1, 1], "dilation_rate": [1, 1], "kernel_regularizer": null, "filters": 1, "bias_initializer": {"class_name": "Zeros", "config": {}}, "use_bias": true, "activity_regularizer": null, "kernel_size": [5, 5]}, "inbound_nodes": [[["Conv2DTransposeD_5", 0, 0, {}]]], "name": "Conv2DD_6"}, {"class_name": "Flatten", "config": {"trainable": true, "name": "flatten_1"}, "inbound_nodes": [[["z_meanE_5", 0, 0, {}]]], "name": "flatten_1"}, {"class_name": "Flatten", "config": {"trainable": true, "name": "flatten_2"}, "inbound_nodes": [[["z_varE_5", 0, 0, {}]]], "name": "flatten_2"}, {"class_name": "Flatten", "config": {"trainable": true, "name": "flatten_3"}, "inbound_nodes": [[["Conv2DD_6", 0, 0, {}]]], "name": "flatten_3"}, {"class_name": "Lambda", "config": {"function": ["c\u0001\u0000\u0000\u0000\u0005\u0000\u0000\u0000\u0005\u0000\u0000\u0000C\u0000\u0000\u0000sK\u0000\u0000\u0000d\u0001\u0000|\u0000\u0000f\u0002\u0000GH|\u0000\u0000\\\u0002\u0000}\u0001\u0000}\u0002\u0000t\u0000\u0000j\u0001\u0000d\u0002\u0000\u0083\u0001\u0000}\u0003\u0000t\u0000\u0000j\u0001\u0000d\u0002\u0000\u0083\u0001\u0000}\u0004\u0000t\u0002\u0000|\u0001\u0000|\u0002\u0000|\u0003\u0000|\u0004\u0000g\u0004\u0000\u0083\u0001\u0000S(\u0003\u0000\u0000\u0000Ns\u001b\u0000\u0000\u0000Gaussian prior KL inputs : g\u0000\u0000\u0000\u0000\u0000\u0000\u0000\u0000(\u0003\u0000\u0000\u0000t\u0001\u0000\u0000\u0000Kt\b\u0000\u0000\u0000variablet\u000b\u0000\u0000\u0000gaussian_kl(\u0005\u0000\u0000\u0000t\u0006\u0000\u0000\u0000inputst\u0003\u0000\u0000\u0000mu1t\u0007\u0000\u0000\u0000logvar1t\u0003\u0000\u0000\u0000mu2t\u0007\u0000\u0000\u0000logvar2(\u0000\u0000\u0000\u0000(\u0000\u0000\u0000\u0000s8\u0000\u0000\u0000/auto/rcf-proj/ef/palashgo/rob/ib_autoencoders/losses.pyt\u0011\u0000\u0000\u0000gaussian_prior_kl\u00ef\u0000\u0000\u0000s\n\u0000\u0000\u0000\u0000\u0001\u000b\u0001\f\u0001\u000f\u0001\u000f\u0001", null, null], "name": "vae_reg", "trainable": true, "function_type": "lambda", "arguments": {}, "output_shape": null, "output_shape_type": "raw"}, "inbound_nodes": [[["flatten_1", 0, 0, {}], ["flatten_2", 0, 0, {}]]], "name": "vae_reg"}, {"class_name": "Lambda", "config": {"function": ["c\u0001\u0000\u0000\u0000\u0005\u0000\u0000\u0000\u0007\u0000\u0000\u0000C\u0000\u0000\u0000s\u00c3\u0000\u0000\u0000d\u0001\u0000|\u0000\u0000f\u0002\u0000GHt\u0000\u0000|\u0000\u0000\u0083\u0001\u0000d\u0002\u0000k\u0002\u0000ry\u0000|\u0000\u0000\\\u0002\u0000}\u0001\u0000}\u0002\u0000t\u0001\u0000|\u0002\u0000t\u0002\u0000\u0083\u0002\u0000rf\u0000d\u0003\u0000GHt\u0003\u0000g\u0000\u0000|\u0002\u0000D]\u0018\u0000}\u0003\u0000t\u0004\u0000j\u0005\u0000|\u0001\u0000|\u0003\u0000\u0083\u0002\u0000^\u0002\u0000qG\u0000\u0083\u0001\u0000St\u0004\u0000j\u0005\u0000|\u0001\u0000|\u0002\u0000\u0083\u0002\u0000SnF\u0000|\u0000\u0000d\u0004\u0000\u0019}\u0004\u0000t\u0003\u0000g\u0000\u0000t\u0006\u0000d\u0005\u0000t\u0000\u0000|\u0000\u0000\u0083\u0001\u0000\u0083\u0002\u0000D]\u001c\u0000}\u0003\u0000t\u0004\u0000j\u0005\u0000|\u0004\u0000|\u0000\u0000|\u0003\u0000\u0019\u0083\u0002\u0000^\u0002\u0000q\u009c\u0000\u0083\u0001\u0000Sd\u0000\u0000S(\u0006\u0000\u0000\u0000Ns\u001e\u0000\u0000\u0000Binary cross entropy inputs : i\u0002\u0000\u0000\u0000s\u001c\u0000\u0000\u0000**** LOSS AVERAGING BCE ****i\u0000\u0000\u0000\u0000i\u0001\u0000\u0000\u0000(\u0007\u0000\u0000\u0000t\u0003\u0000\u0000\u0000lent\n\u0000\u0000\u0000isinstancet\u0004\u0000\u0000\u0000listt\u0007\u0000\u0000\u0000averaget\u0001\u0000\u0000\u0000Kt\u0013\u0000\u0000\u0000binary_crossentropyt\u0005\u0000\u0000\u0000range(\u0005\u0000\u0000\u0000t\u0006\u0000\u0000\u0000inputst\u0003\u0000\u0000\u0000mu1t\u0003\u0000\u0000\u0000mu2t\u0004\u0000\u0000\u0000predt\u0004\u0000\u0000\u0000true(\u0000\u0000\u0000\u0000(\u0000\u0000\u0000\u0000s8\u0000\u0000\u0000/auto/rcf-proj/ef/palashgo/rob/ib_autoencoders/losses.pyR\u0005\u0000\u0000\u0000\u0005\u0001\u0000\u0000s\u0012\u0000\u0000\u0000\u0000\u0001\u000b\u0001\u0012\u0001\f\u0001\u000f\u0001\u0005\u0001)\u0003\u0013\u0002\n\u0001", null, null], "name": "bce_recon", "trainable": true, "function_type": "lambda", "arguments": {}, "output_shape": null, "output_shape_type": "raw"}, "inbound_nodes": [[["input_1", 0, 0, {}], ["flatten_3", 0, 0, {}]]], "name": "bce_recon"}], "input_layers": [["input_1", 0, 0]], "output_layers": [["vae_reg", 0, 0], ["bce_recon", 0, 0]], "name": "model_1"}, "backend": "tensorflow"}